…
  Chunk 100,000/100,000 — valides jusqu'ici : 100,000
  Exemples valides : 100,000  |  Ignorés : 0
  Cibles (avant norm)  mean=[  3.34  81.73 392.85   1.76   4.69   0.52   3.19   2.28]
  Cibles (avant norm)  std =[  2.14  45.8  125.96   1.6    2.23   0.22   1.41   1.24]
  Train : 90,000 | Val : 10,000

[MODEL] atom_feat_dim=16, max_atoms=60, n_targets=8
Model: "ChEMBL_Pretrain_GNN"
┏━━━━━━━━━━━━━━━━━━━━━┳━━━━━━━━━━━━━━━━━━━┳━━━━━━━━━━━━┳━━━━━━━━━━━━━━━━━━━┓
┃ Layer (type)        ┃ Output Shape      ┃    Param # ┃ Connected to      ┃
┡━━━━━━━━━━━━━━━━━━━━━╇━━━━━━━━━━━━━━━━━━━╇━━━━━━━━━━━━╇━━━━━━━━━━━━━━━━━━━┩
│ atom_feats          │ (None, 60, 16)    │          0 │ -                 │
│ (InputLayer)        │                   │            │                   │
├─────────────────────┼───────────────────┼────────────┼───────────────────┤
│ adj_matrix          │ (None, 60, 60)    │          0 │ -                 │
│ (InputLayer)        │                   │            │                   │
├─────────────────────┼───────────────────┼────────────┼───────────────────┤
│ node_embed (Dense)  │ (None, 60, 64)    │      1,088 │ atom_feats[0][0]  │
├─────────────────────┼───────────────────┼────────────┼───────────────────┤
│ graph_conv_1        │ (None, 60, 64)    │          0 │ adj_matrix[0][0], │
│ (Lambda)            │                   │            │ node_embed[0][0]  │
├─────────────────────┼───────────────────┼────────────┼───────────────────┤
│ gcn_proj_1 (Dense)  │ (None, 60, 64)    │      4,160 │ graph_conv_1[0][… │
├─────────────────────┼───────────────────┼────────────┼───────────────────┤
│ ln1                 │ (None, 60, 64)    │        128 │ gcn_proj_1[0][0]  │
│ (LayerNormalizatio… │                   │            │                   │
├─────────────────────┼───────────────────┼────────────┼───────────────────┤
│ graph_conv_2        │ (None, 60, 64)    │          0 │ adj_matrix[0][0], │
│ (Lambda)            │                   │            │ ln1[0][0]         │
├─────────────────────┼───────────────────┼────────────┼───────────────────┤
│ node_proj (Dense)   │ (None, 60, 128)   │      8,320 │ graph_conv_2[0][… │
├─────────────────────┼───────────────────┼────────────┼───────────────────┤
│ ln2                 │ (None, 60, 128)   │        256 │ node_proj[0][0]   │
│ (LayerNormalizatio… │                   │            │                   │
├─────────────────────┼───────────────────┼────────────┼───────────────────┤
│ mean_pool           │ (None, 128)       │          0 │ ln2[0][0]         │
│ (GlobalAveragePool… │                   │            │                   │
├─────────────────────┼───────────────────┼────────────┼───────────────────┤
│ max_pool            │ (None, 128)       │          0 │ ln2[0][0]         │
│ (GlobalMaxPooling1… │                   │            │                   │
├─────────────────────┼───────────────────┼────────────┼───────────────────┤
│ graph_pool          │ (None, 256)       │          0 │ mean_pool[0][0],  │
│ (Concatenate)       │                   │            │ max_pool[0][0]    │
├─────────────────────┼───────────────────┼────────────┼───────────────────┤
│ mlp1 (Dense)        │ (None, 128)       │     32,896 │ graph_pool[0][0]  │
├─────────────────────┼───────────────────┼────────────┼───────────────────┤
│ dropout (Dropout)   │ (None, 128)       │          0 │ mlp1[0][0]        │
├─────────────────────┼───────────────────┼────────────┼───────────────────┤
│ mlp2 (Dense)        │ (None, 64)        │      8,256 │ dropout[0][0]     │
├─────────────────────┼───────────────────┼────────────┼───────────────────┤
│ descriptor_head     │ (None, 8)         │        520 │ mlp2[0][0]        │
│ (Dense)             │                   │            │                   │
└─────────────────────┴───────────────────┴────────────┴───────────────────┘
 Total params: 55,624 (217.28 KB)
 Trainable params: 55,624 (217.28 KB)
 Non-trainable params: 0 (0.00 B)
I0000 00:00:1779362514.798380    1823 generator_dataset_op.cc:213] Memory patch applied: M_TRIM_THRESHOLD=128 kb was set.
…
